model/snore_detector.tflite (tflite, 320272 bytes, 7 tensors)

arith.constant f4 [32]
000000 71 52 ae ba 19 88 c6 bb c6 83 83 ba d7 2f 9b 3a
       -0.0013299716 -0.0060587046 -0.0010033778 0.0011839819
000010 af 15 63 bc d8 a4 d9 b9 6a fd 67 bb 0a d2 de ba
       -0.01386015 -0.00041512283 -0.003539885 -0.0016999852
000020 29 ee ae bb 96 5b 0b 3b 57 93 88 bb d8 fc 92 bb
       -0.0053384495 0.0021264306 -0.004167955 -0.0044857077
000030 7b 08 9a bb 18 ac 8a 39 33 a0 01 bc 77 74 f4 bb
       -0.004700718 0.0002644963 -0.00791173 -0.0074601728
000040 30 0c 86 bb 2e a6 a0 bb e1 51 ab ba f2 3b 26 bb
       -0.0040908083 -0.0049026227 -0.0013070666 -0.002536532
000050 21 d8 18 bb 41 d8 84 b9 5e 4f a2 b9 b1 35 10 b9
       -0.0023322182 -0.00025338124 -0.0003095818 -0.00013752912
000060 38 99 09 39 07 b4 ae ba 1f a8 9a b8 f3 2a 02 bc
       0.00013122417 -0.0013328799 -7.374607e-05 -0.00794481
000070 6e 4a e3 b9 ec bf e1 bb 7c dd 42 bb aa 2f e4 ba
       -0.00043352268 -0.006889334 -0.0029734066 -0.0017409225

arith.constant1 f4 [32, 3, 3, 1]
000000 75 c5 76 3d 6e 4a d3 3c 18 b8 b0 bd de 4d 81 3c
       0.060246903 0.025792327 -0.08628863 0.0157842
000010 10 e3 29 bc fc 0c 90 ba 40 73 0d be 19 91 d3 3d
       -0.010369077 -0.0010990198 -0.13813496 0.103304096
000020 ef a9 25 3d 09 a2 c8 3d b7 12 fa bd 17 b7 92 3d
       0.040445264 0.09796531 -0.12210601 0.07163828
000030 56 c5 07 be cd e1 6d bc ce a8 49 bd 38 10 0a be
       -0.13258871 -0.014519167 -0.04923325 -0.1348275
000040 63 ec 82 bd e6 69 24 3d b4 20 04 3e 89 a9 81 bc
       -0.063927434 0.040140055 0.129031 -0.015827911
000050 25 d3 93 3d 9a 11 01 3e 03 e1 07 3e 5a 26 97 bd
       0.07218007 0.1260437 0.13269429 -0.07380362
000060 70 1b 91 bd 7e 36 bc 3d 68 f9 0c bd 84 22 ab bc
       -0.070853114 0.09190081 -0.03441754 -0.020890482
000070 71 3b c3 3d b7 b3 b8 3d ef 45 03 bd c2 a5 3f bd
       0.09532822 0.09018653 -0.032049116 -0.04678894
000080 4d 57 be 3d 84 ba 0a be ed 0c de 3d 29 42 d0 3d
       0.09293995 -0.13547713 0.10842309 0.10168869
000090 c9 ff d0 bb fa d8 98 bd c6 73 e8 bd 75 52 af bd
       -0.006378148 -0.0746326 -0.11350207 -0.08560649
0000a0 01 ce 03 3e dc c7 a1 3d 6c 82 e6 3d d1 7a e0 bd
       0.12871553 0.07899448 0.11255345 -0.10960925
0000b0 39 93 56 bd 34 3e 8a 3d b5 ec 7d 3d ea 03 e9 bd
       -0.052386496 0.067501456 0.06199332 -0.113777
0000c0 a3 c6 04 3e ed b4 fe 3d 1d e1 0a be c1 13 66 bd
       0.12966399 0.124368526 -0.13562436 -0.056171183
0000d0 93 01 00 3d c1 30 20 3d ee b2 d9 bd 42 73 1d bc
       0.0312515 0.039108995 -0.10629831 -0.009609999
0000e0 74 f0 ed 3d 38 bb 4f 3d eb bf b9 3d 1d 2e 0e bd
       0.116181284 0.050715655 0.090698086 -0.034711946
0000f0 28 2e 72 3d be 34 d8 3d 96 6e b0 bd ed 65 0e 3d
       0.05912605 0.10556935 -0.086148426 0.034765173
000100 64 d8 44 bb c7 c0 c1 bc c3 e3 d3 3d 08 ac 2f 3d
       -0.0030036205 -0.023651494 0.103461765 0.04288867
000110 64 e8 c3 bd ba d6 37 3d 1b d9 c6 3d 61 4e fc bd
       -0.09565809 0.044882514 0.09709378 -0.12319637
000120 f8 f9 eb 3d 1e 39 d2 3d cf 93 ca 3d 5b 78 ba 3d
       0.11522287 0.102648005 0.098914735 0.09104987
000130 d8 48 b3 3d 47 52 fc bd 71 ba 9e 3d fa 86 45 bd
       0.08754128 -0.12320381 0.077504046 -0.048224427
000140 6d 60 01 bd fa 40 bf 3c 64 e9 b5 3d 0c 32 b8 3d
       -0.0315861 0.023346413 0.08882406 0.08993921
000150 77 eb c6 3d dc 80 a4 bd 1a cb 96 3c 63 f7 e8 3d
       0.0971288 -0.080323905 0.018407393 0.1137531
000160 7d b8 ae 3d cf 27 16 3d 32 5d b2 3d a0 f9 db bd
       0.08531282 0.03665906 0.08709182 -0.107409716
000170 d6 b0 95 bc 5e b2 7e bd b8 bf 0f be 9c 6e b6 bd
       -0.018272799 -0.062181823 -0.14037979 -0.08907816
000180 70 70 23 3d 1e a9 37 3d b3 18 07 3c de 8c c6 bd
       0.03990215 0.044839017 0.008245635 -0.09694837
000190 95 ee 37 bd 7d a4 d7 bc 81 ff 95 3d a4 04 d0 bd
       -0.044905264 -0.026323551 0.07324124 -0.10157135
0001a0 16 07 b3 bd c5 3f 2b 3d 03 4e 04 be c2 91 a0 bd
       -0.08741586 0.041808862 -0.12920384 -0.07840301
0001b0 5d 88 e8 bd c8 d1 41 3c a4 cc ca bd f8 4f 05 be
       -0.11354134 0.011829801 -0.09902313 -0.13018787
0001c0 a1 66 24 bd 2a 19 eb bd c7 4d 0b be 91 61 fa bb
       -0.040136937 -0.11479409 -0.13603888 -0.0076410254
0001d0 05 aa 20 bd ae d6 f5 3d 84 18 47 bc e2 4a dc 3d
       -0.039224643 0.120038375 -0.012151841 0.1075647
0001e0 6d 80 57 3d 8d e7 f8 3d 51 5a 50 3d 3f ee d4 3d
       0.05261271 0.1215354 0.050867382 0.10397004
0001f0 75 ef 3f 3d 6b 0e 8b 3b 88 d0 f7 bc 2e f7 7a bd
       0.046859223 0.004243662 -0.030250803 -0.061270885
000200 f0 25 d1 bd cf 08 e6 bd 9c e3 2d 3d c7 cf ee 3d
       -0.10212314 -0.11232149 0.042453393 0.11660724
000210 45 80 1c 3d a3 dd d6 bb b6 88 89 bd c1 a7 03 3e
       0.038208265 -0.006557183 -0.06715529 0.12856962
000220 a3 80 c0 bc ed 5c c8 3d 48 b7 92 bd 8a b7 7b 3d
       -0.023498839 0.09783349 -0.071638644 0.061454333
000230 64 4d da 3b 73 08 ac bd ba ad 83 3c 60 f7 da bd
       0.0066620577 -0.08400049 0.01607405 -0.10691714
000240 59 1b d2 bd 9f 3c 93 bd ea 07 e7 3d 5f 6f 9c bc
       -0.102591224 -0.07189297 0.11280806 -0.019096075
000250 fb d4 83 3d 51 94 a0 3c 3c b5 0d 3d a4 c6 c9 3d
       0.06437107 0.019601973 0.034596667 0.09852341
000260 c9 e4 11 bd a0 07 dd 3c 29 2d 48 3d 09 69 c1 bd
       -0.035618577 0.026981175 0.048871193 -0.09443862
000270 2a f5 14 bd 90 33 b8 3d a3 43 11 3d f9 92 39 bb
       -0.03636662 0.0899421 0.035464894 -0.0028316362
000280 37 1b a6 3d 6f a6 3a bd 88 61 ef bd d3 16 96 bd
       0.081106596 -0.04556888 -0.116885245 -0.07328572
000290 63 b2 3a bc f6 15 78 bd 0d 64 e3 bd 11 7d 8b bd
       -0.01139507 -0.06056782 -0.111030675 -0.06810964
0002a0 db 61 05 3e b3 89 51 3d eb 32 1d 3e 83 d8 b2 3d
       0.1302561 0.05115671 0.15351455 0.087327026
0002b0 87 9e df 3d 88 24 b1 bd 78 d7 c8 3d 8f 2a 16 be
       0.109189086 -0.08649546 0.098067224 -0.14664672
0002c0 3b bb f3 bd 33 88 fe 3d 6f 8e f6 3d e7 10 52 3c
       -0.11900946 0.12428322 0.12038886 0.012821413
0002d0 f9 67 91 bc 0c 81 bb 3d 23 f3 d4 3d 71 cd 3f bd
       -0.017749773 0.09155473 0.10397937 -0.046826784
0002e0 1e 56 1a 3e 76 29 5f bc c3 6d 68 3d 09 e1 70 3d
       0.15071914 -0.013620725 0.056745302 0.05880836
0002f0 2e 1a 51 3c 9f 58 dd bd 10 31 9b bc d9 59 00 3e
       0.012762589 -0.10807919 -0.018944293 0.12534274
000300 33 23 f4 3d d4 dc fc 3d 10 38 59 bd 2e 16 df bd
       0.11920776 0.12346807 -0.05303198 -0.10892902
000310 ff 95 df bc 50 fa cb bd 63 75 27 3d db 0a 00 bd
       -0.027293203 -0.09959853 0.040883433 -0.031260353
000320 be b8 2f 3d fa 05 08 bd 7a 1a 0a bd 83 3d c4 3d
       0.042900793 -0.033208825 -0.033716656 0.09582045
000330 61 b3 d9 3d c1 22 cf bd 91 b3 c3 bd 51 2d fa 3d
       0.10629917 -0.10114051 -0.09555734 0.12215675
000340 e3 2a 04 3e ad ac ed bd b2 12 e6 3d 86 b3 05 3d
       0.12906985 -0.11605201 0.112340346 0.03264191
000350 3f fb 31 3b dd 1a 01 3d 00 80 a8 3d 5a eb 6b bd
       0.002715781 0.03151976 0.08227539 -0.057597496
000360 66 b7 cf 3d a4 96 33 bd d4 dd d2 bd 10 5f a6 bd
       0.10142402 -0.043844834 -0.102962166 -0.081236005
000370 1c 62 0c be 10 0e d2 bd 57 c2 e8 bc 76 a6 e0 bd
       -0.13709301 -0.102565885 -0.028412981 -0.1096925
000380 21 20 86 3d d1 0e 8d bd 8a 89 02 be 37 74 c6 3d
       0.06549097 -0.06887592 -0.1274778 0.09690135
000390 09 cb 81 3d 5a f1 13 be da 5d ca 3c 84 1b af 3b
       0.06337554 -0.14447537 0.024702955 0.0053438563
0003a0 fd b3 bd bd a4 e9 c5 3c 3c a0 f4 3d 20 0b 91 3c
       -0.09262846 0.02415926 0.11944625 0.0177055
0003b0 b5 74 0f 3e 00 61 2f 3a 1a 89 2c 3d 49 a7 f8 3d
       0.14009364 0.00066901743 0.042122938 0.12141282
0003c0 e5 12 b2 3d 85 9d 87 bd d6 c7 85 3d da 1f 42 3b
       0.0869501 -0.06621841 0.06532256 0.0029621036
0003d0 b4 70 18 3b 58 64 98 3b b4 db 18 3e 3e a0 cb bd
       0.0023260536 0.004650634 0.1492756 -0.09942673
0003e0 4b 77 88 bc 78 2f fe bd 2f 4b c5 bd 0a 70 c1 bd
       -0.016658446 -0.12411398 -0.09633481 -0.09445198
0003f0 cc 91 bd 3d bf 42 55 bc 90 c6 ed 3d 0e 1c 26 3d
       0.09256324 -0.013016402 0.116101384 0.0405541

arith.constant4 f4 [64]
000000 1e bb c4 bb 48 4a 67 ba 28 0e db b9 5f a9 10 bb
       -0.0060037514 -0.00088230195 -0.00041781482 -0.002207361
000010 62 3c 03 bb 1d b5 77 3a d5 74 c4 bb a9 74 b5 ba
       -0.0020025005 0.000944929 -0.005995373 -0.0013843972
000020 0e be c3 3b 68 9e c2 b8 ec 75 c4 bb ec bc c4 bb
       0.005973584 -9.280146e-05 -0.0059955027 -0.0060039666
000030 2b bf ce 3a 4d e1 2a ba 93 2f 1e bb 14 d4 5a 3b
       0.0015773525 -0.0006518558 -0.0024137243 0.0033390569
000040 88 28 84 b9 28 8e d9 b9 63 bd 25 bb 15 cb cd b9
       -0.000252072 -0.0004149538 -0.0025289885 -0.00039251955
000050 53 9d 17 3c f6 e6 f9 38 fd 59 2a 3c b7 7a 2a 3b
       0.009253818 0.00011916265 0.010397431 0.0026013085
000060 8c 62 6e bb 89 90 b7 ba ed bd 3e ba ed 9b 34 ba
       -0.0036374656 -0.0014004867 -0.0007276226 -0.000688969
000070 38 cb 1f 3c a0 e2 9e 39 dc 89 04 3c aa 23 ae bb
       0.009753041 0.00030304957 0.008089509 -0.00531431
000080 1a bb c4 bb d7 55 22 ba cd 1a 46 3b 38 19 22 3b
       -0.0060037496 -0.00061926007 0.0030228377 0.002473427
000090 e2 e2 b5 b9 d7 f2 0b 39 16 c2 c4 bb a0 21 89 bb
       -0.0003469205 0.00013346538 -0.006004582 -0.0041849166
0000a0 e8 9a aa 3a e6 02 9c 3b 53 1f 6a 39 f9 e5 0a bc
       0.0013016136 0.0047610877 0.00022327648 -0.008477681
0000b0 b4 0a 0e 3a 4c 86 d0 bb 62 0e 86 3a 57 f5 35 bb
       0.0005418465 -0.0063636657 0.0010227675 -0.0027764642
0000c0 a9 f4 1c bc 4c bf c4 bb 64 18 a8 3b 62 aa 5a 3b
       -0.009579816 -0.0060042497 0.0051298607 0.0033365716
0000d0 2f e0 75 3b 69 db 5b 3b 80 e9 32 3b 3d 51 8e bb
       0.0037517657 0.0033547527 0.0027299821 -0.0043431805
0000e0 0a fc 63 3b 5b bf f5 b9 af 0c bc bb 17 de 8b 3b
       0.0034787678 -0.00046872612 -0.0057388167 0.0042684185
0000f0 7d be c4 bb ca d5 13 bb d4 ee 1c 3b aa 17 93 bb
       -0.0060041533 -0.0022557848 0.0023946064 -0.004488905

arith.constant5 f4 [1, 64]
000000 27 ec 94 be 15 79 9d 3d 6a df 4e 3e d1 6a 98 be
       -0.2908642 0.0768911 0.20202413 -0.29768994
000010 4f ce c3 3c 98 05 93 3e e6 9f c2 bd 89 fc c7 bd
       0.023902087 0.28715205 -0.095031545 -0.09764964
000020 2b 20 00 be 4d 6f d7 3d 8f a0 ea 3c 80 06 2d be
       -0.12512271 0.10519276 0.028641013 -0.16897011
000030 aa e7 74 bd fb f9 14 3e fe e4 15 3c 6b 04 36 be
       -0.059791245 0.14548485 0.009148834 -0.17775123
000040 0b d2 47 3d af 37 9b 3e 88 95 20 be c3 dc 22 3e
       0.048784297 0.3031592 -0.15682042 0.15904526
000050 7c 49 a6 be d9 d8 81 3e 27 9e 87 be ad dc 25 be
       -0.3247794 0.25360754 -0.26487848 -0.16197462
000060 71 c6 2f be 8b ba 96 3e e4 ae d7 3c a3 4a ef 3d
       -0.17165543 0.29439196 0.026328512 0.11684158
000070 72 4f 72 be bf 8b cc bd 46 99 8f be 04 90 8c be
       -0.23663118 -0.09987592 -0.28046626 -0.27453625
000080 3d 97 78 be be a4 3e 3e fc d7 58 be e3 8e 97 be
       -0.24276443 0.18617532 -0.21176142 -0.296012
000090 26 0f 92 3e 3b c4 1d 3e 84 bf 5c be 2d 8c 23 3e
       0.28527182 0.15406887 -0.21557432 0.15971442
0000a0 66 6f 80 be 40 18 11 be d3 f8 66 3e 9f 35 95 3e
       -0.2508499 -0.14169407 0.22555856 0.29142472
0000b0 60 64 43 be 6a 69 d5 bc 1a 92 36 be 41 fe 1c be
       -0.19081259 -0.026051242 -0.17829171 -0.15331365
0000c0 df 2e cd 3d 71 7e 03 be c2 2e 48 bd a7 c1 94 be
       0.100187056 -0.12841202 -0.048872717 -0.29053995
0000d0 8e 22 01 be a0 7b 90 be a8 bf 33 be a1 36 14 3e
       -0.12610838 -0.28219318 -0.1755358 0.14473964
0000e0 e4 66 e9 bd b2 5f 93 3e aa 05 7d 3e 4d 11 77 bd
       -0.11396578 0.28783947 0.24709192 -0.060319234
0000f0 e9 ef 88 be 6f c4 65 3e e6 77 c3 bc 05 a5 9e 3a
       -0.26745537 0.22438215 -0.023860883 0.0012103623

arith.constant6 f4 [64]
000000 64 7b 51 bb d2 8d 94 ba 6e 64 5e bb 8f 67 0b bb
       -0.0031964416 -0.001133377 -0.0033934372 -0.0021271443
000010 b7 5d 40 ba 2c 4a 82 3b 8d 1c cc bb 27 c6 13 b8
       -0.00073381833 0.003976127 -0.0062289895 -3.5232075e-05
000020 30 29 62 bb aa 1f aa bb 52 9a 0d b8 af 8d 28 ba
       -0.0034509413 -0.005191763 -3.376074e-05 -0.0006429804
000030 cc 6a fb ba 41 85 52 bb 15 85 b4 bb cd 99 ee ba
       -0.0019181608 -0.0032122883 -0.0055090287 -0.0018203795
000040 a8 60 de ba b9 86 31 bb ce 7c 88 b9 ef aa 22 38
       -0.0016966062 -0.0027088358 -0.00026032928 3.8783004e-05
000050 7f cb e3 ba f4 f5 c6 bb b2 de 98 ba e4 e9 ec bb
       -0.0017379372 -0.0060718004 -0.0011663048 -0.0072300304
000060 4b 6e f7 b8 df b1 30 39 11 fc ab bb db 4a b3 ba
       -0.000117984215 0.0001685093 -0.0052485545 -0.0013678925
000070 7b 80 0b bb 30 3c b2 ba e5 85 f3 bb d3 d5 24 bc
       -0.0021286297 -0.001359826 -0.007431733 -0.010060745
000080 a4 fd f9 bb 29 12 3f bc 7c ce d3 bb c8 e7 21 bb
       -0.0076291133 -0.011662045 -0.006463824 -0.0024704803
000090 c5 de ee bb f9 84 cf ba cb b2 27 bc 72 d7 b1 bb
       -0.00728974 -0.0015832476 -0.010235499 -0.0054272944
0000a0 7c e5 ea bb ab 5c 01 bc 00 36 46 bb f1 3d 87 bb
       -0.00716847 -0.007895629 -0.003024459 -0.004127257
0000b0 da 2a 4c bb 0b b1 f4 39 35 12 e8 ba e7 f8 71 bb
       -0.0031153471 0.00046671214 -0.0017705621 -0.003692204
0000c0 b3 67 03 bb 91 4f 49 3b 95 86 ce bb 25 aa b4 bb
       -0.0020050823 0.0030717591 -0.0063026645 -0.005513447
0000d0 f7 e7 c0 3b 6a 9a aa bb 9c e6 a3 bb 11 2c ea bb
       0.0058870274 -0.005206396 -0.005001856 -0.0071463664
0000e0 18 2c 49 bb 97 de 88 bb ee cf 64 39 96 8e 28 bc
       -0.0030696448 -0.0041769254 0.00021821234 -0.010287901
0000f0 10 2f 41 bb a0 c5 ad bb d8 75 96 ba 4f 6c 09 bb
       -0.0029477514 -0.0053030998 -0.0011479212 -0.0020969098

tfl.pseudo_qconst i1 [64, 3, 3, 32]
000000 ea a8 01 59 1e d7 e5 0e cd c9 99 a5 1b 33 0b e6
       -22 -88 1 89 30 -41 -27 14 -51 -55 -103 -91 27 51 11 -26
000010 3a 99 bf 5d 5e d7 49 5b bd 68 17 f1 30 90 8d 5b
       58 -103 -65 93 94 -41 73 91 -67 104 23 -15 48 -112 -115 91
000020 72 eb a6 23 62 ac 64 12 93 e0 38 a1 81 b3 4d 47
       114 -21 -90 35 98 -84 100 18 -109 -32 56 -95 -127 -77 77 71
000030 2f 5f 9c e5 61 5b cf a6 ad eb af ae d0 8a 75 cd
       47 95 -100 -27 97 91 -49 -90 -83 -21 -81 -82 -48 -118 117 -51
000040 9a 07 15 a1 da 73 e2 99 5a 9a d6 28 ef d3 70 8c
       -102 7 21 -95 -38 115 -30 -103 90 -102 -42 40 -17 -45 112 -116
000050 12 4a dc d7 56 61 6c 65 55 11 4e 26 66 72 26 0b
       18 74 -36 -41 86 97 108 101 85 17 78 38 102 114 38 11
000060 26 51 24 22 9f 3f 26 f1 b4 9e 9e a4 59 8d af c2
       38 81 36 34 -97 63 38 -15 -76 -98 -98 -92 89 -115 -81 -62
000070 15 b1 70 60 b4 d1 d4 57 46 03 c3 fc 45 d2 6c f2
       21 -79 112 96 -76 -47 -44 87 70 3 -61 -4 69 -46 108 -14
000080 69 41 dd 60 d0 11 be 77 3e 58 9f 0e f0 e2 24 f0
       105 65 -35 96 -48 17 -66 119 62 88 -97 14 -16 -30 36 -16
000090 13 4d f9 b8 d1 3c 97 60 13 58 11 0c 74 ea d7 05
       19 77 -7 -72 -47 60 -105 96 19 88 17 12 116 -22 -41 5
0000a0 a8 56 38 01 20 a5 4e 64 ee b6 43 63 99 13 4a 70
       -88 86 56 1 32 -91 78 100 -18 -74 67 99 -103 19 74 112
0000b0 61 d0 c8 ca bc 2f 7c 29 0c e6 d1 01 9f cb 31 0f
       97 -48 -56 -54 -68 47 124 41 12 -26 -47 1 -97 -53 49 15
0000c0 a1 62 b8 c4 20 cc b9 f8 01 79 1f 24 30 47 9e de
       -95 98 -72 -60 32 -52 -71 -8 1 121 31 36 48 71 -98 -34
0000d0 66 9f ab d4 ea 3d 39 55 d5 d3 9b 45 4a cb 8d fd
       102 -97 -85 -44 -22 61 57 85 -43 -45 -101 69 74 -53 -115 -3
0000e0 45 27 06 3f ab bc 45 2e bb f5 05 47 3f de 02 a5
       69 39 6 63 -85 -68 69 46 -69 -11 5 71 63 -34 2 -91
0000f0 b6 95 32 c6 7b 9a 6c 26 72 6b 69 fa 23 90 ca ac
       -74 -107 50 -58 123 -102 108 38 114 107 105 -6 35 -112 -54 -84

tfl.pseudo_qconst1 i1 [64, 4608]
000000 3a cb cb f3 84 bc d1 b1 bd ad b2 3a a8 4c 0c b3
       58 -53 -53 -13 -124 -68 -47 -79 -67 -83 -78 58 -88 76 12 -77
000010 15 d8 c5 30 6b 1f ce cc 06 4b a3 a3 39 4e 11 8d
       21 -40 -59 48 107 31 -50 -52 6 75 -93 -93 57 78 17 -115
000020 0f f3 cc 02 db 35 c4 a4 11 50 bd 69 9c 9c 32 c4
       15 -13 -52 2 -37 53 -60 -92 17 80 -67 105 -100 -100 50 -60
000030 21 95 14 20 c2 4c 34 36 cf 60 2e 05 97 3b 1f ee
       33 -107 20 32 -62 76 52 54 -49 96 46 5 -105 59 31 -18
000040 27 8c 96 43 0f 4d 85 47 37 df f7 09 14 96 4e 95
       39 -116 -106 67 15 77 -123 71 55 -33 -9 9 20 -106 78 -107
000050 c8 a6 23 99 e9 16 08 33 e1 a6 d9 eb a8 f3 cd 5d
       -56 -90 35 -103 -23 22 8 51 -31 -90 -39 -21 -88 -13 -51 93
000060 8b c6 22 21 83 df 51 b5 4c 90 af a9 dd ee 1c 43
       -117 -58 34 33 -125 -33 81 -75 76 -112 -81 -87 -35 -18 28 67
000070 35 03 ab 51 25 44 c8 1c c8 7c b8 82 55 c6 c6 ee
       53 3 -85 81 37 68 -56 28 -56 124 -72 -126 85 -58 -58 -18
000080 ce c4 82 f2 43 bb 92 dd 12 1f 8b d1 b7 0d b5 37
       -50 -60 -126 -14 67 -69 -110 -35 18 31 -117 -47 -73 13 -75 55
000090 2c 6b aa 8c 2f eb a9 34 b1 0c f8 10 3b 46 a4 71
       44 107 -86 -116 47 -21 -87 52 -79 12 -8 16 59 70 -92 113
0000a0 ec b3 30 ff af 40 59 59 00 e4 4b 5e d5 f7 2d b4
       -20 -77 48 -1 -81 64 89 89 0 -28 75 94 -43 -9 45 -76
0000b0 9e 8f 3d 99 ad c3 15 a5 bc 2c 38 e0 17 a7 54 e5
       -98 -113 61 -103 -83 -61 21 -91 -68 44 56 -32 23 -89 84 -27
0000c0 3f 0e 3e 3f aa 3d da a1 fc ce 16 98 f1 f9 e3 45
       63 14 62 63 -86 61 -38 -95 -4 -50 22 -104 -15 -7 -29 69
0000d0 ea b6 f5 e5 3d f1 96 85 fd 8f c6 3a 82 c1 cc 9c
       -22 -74 -11 -27 61 -15 -106 -123 -3 -113 -58 58 -126 -63 -52 -100
0000e0 14 1b c9 89 b8 48 57 81 52 ba b3 33 ee 90 40 b5
       20 27 -55 -119 -72 72 87 -127 82 -70 -77 51 -18 -112 64 -75
0000f0 06 9c d6 3b 44 45 d7 08 db c7 1e c0 a4 10 53 8c
       6 -100 -42 59 68 69 -41 8 -37 -57 30 -64 -92 16 83 -116
